model.pt (torch, 8032 bytes, 10 tensors)

_orig_mod.sequential.0.weight f4 [16, 10]
0	0xbdeb30f7	-0.11483949
1	0x3d5534e3	0.05205239
2	0x3d802922	0.062578455
3	0xbf1b3ac5	-0.6063655
4	0xbe448d13	-0.1919444
5	0xbe172638	-0.14760673
6	0xbd09e355	-0.033664066
7	0xbf3f2cfa	-0.74678004
8	0x3e7ecb8a	0.24882331
9	0xbd91fed9	-0.071286865
10	0x3e13c4f7	0.14430605
11	0x3efd57b6	0.4948098
12	0x3db504ac	0.08838782
13	0xbe8cf0d5	-0.2752749
14	0xbe8f7528	-0.2801907
15	0xbd67137e	-0.056415074
16	0x3a7350c0	0.0009281747
17	0xbefe8bfc	-0.49716175
18	0xbe80a389	-0.25124767
19	0x3e18ab28	0.14909041
20	0xbea2794a	-0.3173316
21	0xbf439e4b	-0.7641341
22	0xbea036ca	-0.312918
23	0x3eafd579	0.34342554
24	0x3d8b705b	0.068085395
25	0xbe2cf131	-0.16888882
26	0x3e73c723	0.23806433
27	0x3eefa26c	0.46803606
28	0xbd096bf6	-0.033550225
29	0x3e3c1fee	0.18371555
30	0xbe1b4876	-0.1516436
31	0xbb8ce22a	-0.004299422
32	0xbc72d534	-0.014821339
33	0x3ddc5aeb	0.10759529
34	0x3e36838f	0.17823623
35	0x3e0bc087	0.13647662
36	0xbd7200fc	-0.05908297
37	0x3d72c86f	0.05927318
38	0xbe2318a0	-0.15927362
39	0x3ea4e1d9	0.32203558
40	0xbea3113f	-0.31849095
41	0xbee1b858	-0.44085956
42	0x3cca4881	0.024692776
43	0x3e483f10	0.19555306
44	0xbe1a2c70	-0.15056014
45	0xbb08cce4	-0.0020874077
46	0xbd5e32d1	-0.05424768
47	0x3ea56a22	0.32307535
48	0xbec3ec15	-0.38266054
49	0xbe8f27ed	-0.27960148
50	0xbe0b3c4c	-0.1359722
51	0x3ea69f46	0.3254339
52	0x3d5f2dd8	0.05448708
53	0x3e66e972	0.2254999
54	0xbe8a9b01	-0.27071384
55	0x3efa1ab2	0.48848492
56	0x3ddaa0ba	0.106751874
57	0xbe8878e9	-0.26654747
58	0xbe5d4dcb	-0.21611707
59	0xbd2d2111	-0.042267863
60	0x3ded0ab9	0.11574311
61	0xbf1e2fe9	-0.61791855
62	0x3ddab761	0.10679508
63	0x3bea51a0	0.0071508437
64	0x3eab5db7	0.33469936
65	0x3e146f1f	0.14495514
66	0x3ea075e2	0.31339937
67	0x3ebaafb8	0.36462188
68	0xbea0234b	-0.31276926
69	0x3e5e9180	0.21735191
70	0x3e8e0c56	0.27743787
71	0xbef4b56d	-0.47794667
72	0x3ea681da	0.32520944
73	0xbdaf71cd	-0.08566628
74	0x3dcc13f8	0.09964746
75	0xbe28a3db	-0.16468756
76	0xbda9cc3a	-0.08290906
77	0x3f2f8f4d	0.68578035
78	0xbe80d889	-0.25165203
79	0x3e98190d	0.29706612
80	0x3ecd9b0e	0.4015736
81	0x3e9997d0	0.29998636
82	0x3dabadc2	0.08382751
83	0x3daae95a	0.083452895
84	0xbc3fc850	-0.011705473
85	0x3cbe45c0	0.023226619
86	0xbdb9bb7c	-0.09068963
87	0xbecd345b	-0.40079007
88	0x3ecf5ee3	0.4050208
89	0xbe858cba	-0.26083928
90	0xbe195f80	-0.14977837
91	0xbe8dd1cb	-0.27699122
92	0x3d9c8bb3	0.07643833
93	0x3e619843	0.2203074
94	0x3dd863c8	0.10565907
95	0x3eb5f96e	0.35541862
96	0x3e62e845	0.22158916
97	0x3d32874b	0.043586057
98	0xbebcda63	-0.36885366
99	0xbe5f52ad	-0.21808882
100	0x3ea7a5d5	0.32743707
101	0x3e380ba7	0.17973195
102	0xbd82f2e7	-0.06393986
103	0xbd2ca86b	-0.042152803
104	0x3e648bdf	0.22318982
105	0x3df04f39	0.117338605
106	0xbe0cd927	-0.13754712
107	0xbf397d47	-0.72456783
108	0x3e02fcfd	0.1279182
109	0xbe32c627	-0.17458402
110	0xb9edf132	-0.00045383867
111	0x3eba6c88	0.36410928
112	0x3df54e55	0.11977831
113	0x3c8572eb	0.016290149
114	0xbe1fd700	-0.1560936
115	0xbd4a8bb8	-0.049449652
116	0xbdb78bec	-0.08962235
117	0xbf1e9fd1	-0.6196261
118	0x3ef65066	0.48108214
119	0x3dd8dbd6	0.105888054
120	0x3e954dcf	0.29160926
121	0xbe9bb660	-0.3041258
122	0xbc364d90	-0.011126891
123	0x3ddeb84b	0.10874995
124	0x3e2e900c	0.17047137
125	0xbe7e7ce1	-0.24852325
126	0xbe1c624c	-0.15271872
127	0xbe34c94e	-0.17654917
128	0x3e85011f	0.25977418
129	0xbe0a3b32	-0.13499144
130	0xbef69b74	-0.48165476
131	0xbe396e12	-0.18108395
132	0xbe3290d4	-0.1743806
133	0xbdac6747	-0.08418136
134	0xbe15715d	-0.14594026
135	0xbd6c7c5a	-0.05773578
136	0xbeef9c9e	-0.46799177
137	0x3f3f6cea	0.74775565
138	0xbe2fdc1c	-0.17173809
139	0x3d0654c2	0.032795675
140	0x3e4539de	0.19260356
141	0x3d4f5eaf	0.050627407
142	0x3def8be9	0.116966076
143	0x3e79f256	0.2440885
144	0xbbf84a70	-0.007577233
145	0xbeabe148	-0.33570313
146	0x3e54b3a8	0.20771658
147	0x3e96a54a	0.2942298
148	0xbefbd69a	-0.49187165
149	0xbe862b2a	-0.26204807
150	0xbe8895ff	-0.26676938
151	0x3f2267aa	0.6343943
152	0x3c699986	0.014257794
153	0xbf08385f	-0.53211015
154	0xbe4e4cda	-0.20146504
155	0x3dad449d	0.084603526
156	0x3e43501d	0.1907353
157	0xbec3440f	-0.38137862
158	0x3e68a40e	0.22718832
159	0x3d44eb19	0.04807577

_orig_mod.sequential.0.bias f4 [16]
0	0x3d4c9dac	0.049955055
1	0xbe609ba0	-0.21934366
2	0xbd91a0c6	-0.07110743
3	0xbf11018b	-0.5664298
4	0x3e2bc131	0.16772915
5	0xbe8f7245	-0.28016868
6	0x3e978b87	0.29598638
7	0x3e9e9132	0.3097015
8	0x3e128d29	0.14311661
9	0xbea9c647	-0.33159086
10	0x3d7fc106	0.06243994
11	0x3d9481fe	0.072513565
12	0xbdb89d48	-0.09014374
13	0xbe5e82c7	-0.21729575
14	0xbce50fe5	-0.02796168
15	0x3ebd5302	0.36977392

_orig_mod.sequential.2.weight f4 [16, 16]
0	0x3e37efcd	0.1796257
1	0x3f04e3fe	0.5191039
2	0xbe9f90fc	-0.31165302
3	0xbe65364d	-0.22383995
4	0xbe91a5b3	-0.2844673
5	0x3bc546cc	0.0060204025
6	0xbd9cdd00	-0.0765934
7	0xbd34758c	-0.044057414
8	0x3e0826d9	0.13296069
9	0x3e5e33f3	0.21699505
10	0x3e024356	0.12720999
11	0x3eabd8ab	0.33563742
12	0xbd08f784	-0.033439174
13	0x3c5723d6	0.013131103
14	0x3ea62e2d	0.32457104
15	0x3ea0cc8d	0.3140606
16	0x3ed657b8	0.418638
17	0x3e3da2a7	0.18519078
18	0x3dcdfc2e	0.10057865
19	0xbdb18c2a	-0.08669312
20	0xbe253d14	-0.1613658
21	0x3deb5b9a	0.11492081
22	0xbe67b915	-0.22629197
23	0xbcec513d	-0.028847331
24	0x3ea6d015	0.3258063
25	0xbced7298	-0.028985307
26	0x3df1ad15	0.11800591
27	0x3e80b1e3	0.25135717
28	0xbd565f6c	-0.052337095
29	0x3d2f5ad8	0.042811245
30	0xbe82c527	-0.2554104
31	0x3e6032ed	0.21894427
32	0xbf1732c0	-0.59061813
33	0xbd335ee3	-0.043791663
34	0x3ec37be6	0.38180465
35	0x3e4252c1	0.1897688
36	0x3e0e357c	0.1388759
37	0xbc76b46e	-0.015057666
38	0x3f0b2600	0.5435486
39	0x3ec41d66	0.3830368
40	0xbee747ef	-0.45172068
41	0x3eb5eb92	0.35531288
42	0xbb8afc10	-0.004241474
43	0xbe82100e	-0.25402874
44	0xbe61ea7a	-0.22062102
45	0x3eded3f3	0.4352108
46	0xbe0a5d71	-0.13512208
47	0xbe85ef5c	-0.2615918
48	0x3e9b238c	0.30300558
49	0x3e6af3a9	0.22944511
50	0x3bc7df8e	0.006099648
51	0xbd752452	-0.05984909
52	0xbdcf86dc	-0.10133144
53	0x3d7895aa	0.060689606
54	0xbee867bf	-0.45391652
55	0xbd97f2e2	-0.07419373
56	0x3ece233a	0.4026125
57	0x3d3c896f	0.046029504
58	0x3eac8483	0.33694848
59	0x3e120e7a	0.14263335
60	0xbd90a26a	-0.07062228
61	0xbe99d2e8	-0.3004372
62	0xbe887d05	-0.26657882
63	0x3f12d20a	0.57351744
64	0xbeb55ed0	-0.354239
65	0xbe2c9572	-0.16853884
66	0x3e3450c9	0.17608942
67	0x3e3059f2	0.17221811
68	0x3eff50fd	0.49866477
69	0x3de45b08	0.11150175
70	0x3e9f024b	0.31056437
71	0x3e52463a	0.20534602
72	0xbebacab9	-0.3648279
73	0x3d420cf7	0.047375645
74	0xbdfdb998	-0.12388915
75	0xbda7ad8f	-0.081874005
76	0xbe4c5009	-0.19952406
77	0x3ee692cd	0.45033875
78	0x3d3eda49	0.04659489
79	0xbe8d42ef	-0.2759013
80	0x3edb2d16	0.42807835
81	0x3e9b6d67	0.30356905
82	0xbe412b0d	-0.18864079
83	0xbd9f7cf2	-0.07787503
84	0x3da10041	0.078613766
85	0x3dbe596d	0.092944
86	0xbed28c20	-0.41122532
87	0xbc50673f	-0.012719928
88	0xbda5d226	-0.08096723
89	0xbe12f97e	-0.14352986
90	0x3e19b2a3	0.15009551
91	0x3e8588b4	0.2608086
92	0xbde5717c	-0.11203286
93	0xbd53e557	-0.051732387
94	0x3e830204	0.25587475
95	0x3ed1259d	0.4084901
96	0xbecc4060	-0.39892864
97	0xbe9e86a0	-0.30962086
98	0xbe4153eb	-0.18879668
99	0xbcd32383	-0.02577377
100	0xbdcd09bc	-0.10011622
101	0x3e9a932b	0.30190405
102	0x3e0f6948	0.14005005
103	0xbd95ec61	-0.07320476
104	0x3cf6bf9a	0.03012066
105	0xbe553137	-0.20819555
106	0x3e36f1e2	0.17865708
107	0xbd829691	-0.063763745
108	0xbdf3b1c5	-0.11899141
109	0xbd9231d3	-0.071384095
110	0x3e31bf03	0.17358021
111	0xbe2d7527	-0.16939221
112	0x3efe190a	0.49628478
113	0x3ee4d234	0.44691622
114	0xbeb1ee33	-0.34752044
115	0x3ce00f4e	0.027351048
116	0x3d5ca460	0.053867698
117	0xbd35c6a8	-0.044378906
118	0xbed38b7b	-0.41317353
119	0xbd89df55	-0.0673205
120	0xbd30f696	-0.043203913
121	0x3e7e28b0	0.24820209
122	0x3ea116ca	0.314627
123	0x3e93a29c	0.28835
124	0xbe2ce86c	-0.16885537
125	0x3cc6ef5c	0.024284057
126	0xbe31ab0b	-0.17350404
127	0x3f13f027	0.5778832
128	0xbe1d58e2	-0.15365937
129	0xbdec400f	-0.11535656
130	0x3e987d71	0.29783204
131	0x3e7cead3	0.24698953
132	0x3e9fc540	0.31205177
133	0xbe23fe40	-0.16014957
134	0x3eb8c9ca	0.36091453
135	0x3e5a8f04	0.21343619
136	0xbe2f5279	-0.17121305
137	0x3e54f0e1	0.20795013
138	0x3db90279	0.09033675
139	0xbe199b36	-0.15000615
140	0xbd926464	-0.07148054
141	0x3f059480	0.5217972
142	0x3d741b7f	0.059596535
143	0xbe9e6bdf	-0.30941674
144	0xbe046c69	-0.1293198
145	0xbf0ec89f	-0.55774873
146	0x3e17a1e9	0.14807858
147	0x3e0ca234	0.1373375
148	0x3eb44c14	0.35214293
149	0x3e0bfdc9	0.1367103
150	0x3eb242b2	0.3481651
151	0x3efe7591	0.4969907
152	0xbeece83f	-0.4627094
153	0x3e545818	0.2073673
154	0xbdca4830	-0.0987705
155	0xbdd1a846	-0.10237174
156	0xbe82164f	-0.25407645
157	0x3ec2769e	0.37981123
158	0x3e2fb907	0.17160426
159	0xbec838c1	-0.391058
160	0xbe3ece42	-0.18633369
161	0xbd0437ba	-0.032279707
162	0xbe8c31a0	-0.2738161
163	0xbd702b6c	-0.05863516
164	0x3c061190	0.008182898
165	0xbe4ac2f6	-0.19800934
166	0x3ddc7f73	0.107664965
167	0xbdee7e0d	-0.11645136
168	0x3c5cebc0	0.013483942
169	0x3e171f26	0.14757976
170	0xbe34a4a0	-0.17640924
171	0x3e0b1ccc	0.13585204
172	0xbe2f9d08	-0.17149746
173	0xbdf2038e	-0.11817084
174	0xbe11c753	-0.14236192
175	0xbdcfe321	-0.10150743
176	0x3e27d58f	0.1639006
177	0x3ec284c2	0.3799191
178	0xbe2ba9ac	-0.16763943
179	0x3e4249d6	0.18973479
180	0xbe77d159	-0.24200954
181	0x3ddddfa6	0.10833673
182	0xbe85fe81	-0.26170734
183	0xbea66627	-0.3249981
184	0x3e8fbf40	0.280756
185	0x3eb23e87	0.3481333
186	0x3da55386	0.080725715
187	0x3d8a71e2	0.06760003
188	0x3dec4ef7	0.11538499
189	0x3ccd3957	0.025051756
190	0x3e2d3193	0.16913442
191	0x3e9e5246	0.30922145
192	0x3eb7c7ed	0.3589472
193	0x3eed8f7b	0.4639853
194	0xbde773a2	-0.11301352
195	0x3e3acb61	0.18241645
196	0x3c070b10	0.008242384
197	0x3dfe1e63	0.124081396
198	0xbead4ab4	-0.33846056
199	0xbd7efbf1	-0.06225199
200	0x3ebac8f2	0.36481434
201	0xbb98c70a	-0.004662399
202	0x3d7591a6	0.059953354
203	0x3e912bfb	0.28353867
204	0xbde95f03	-0.11395075
205	0xbe3654a2	-0.17805722
206	0xbe83eff6	-0.25769013
207	0x3eff9e69	0.49925545
208	0x3b94ba5d	0.004538818
209	0x3ede992f	0.43476245
210	0x3e029bcd	0.12754746
211	0x3dae9826	0.08525114
212	0xbe4cb843	-0.19992165
213	0x3ea3bad6	0.31978482
214	0xbed374bc	-0.413
215	0xbe378a18	-0.17923772
216	0x3dc326bd	0.09528873
217	0x3d1f60e3	0.038910758
218	0x3e803772	0.250423
219	0x3e47f129	0.19525589
220	0x3d385539	0.04500315
221	0xbecbf351	-0.39834073
222	0xbcf26540	-0.029589295
223	0x3e874432	0.26419216
224	0x3d6ec8e5	0.058297057
225	0x3d14c740	0.036322832
226	0x3ec37b16	0.38179845
227	0x3deba5a0	0.115062
228	0x3ea7cf8f	0.32775542
229	0xbe804943	-0.25055894
230	0x3e9fe9ce	0.31233066
231	0x3df82430	0.12116277
232	0x3e560415	0.20899995
233	0x3d4e269a	0.050329782
234	0x3df804bf	0.1211028
235	0x3e0c615f	0.13709019
236	0xbdc666cb	-0.09687575
237	0x3e890b01	0.26766208
238	0x3ee1c5e6	0.44096297
239	0xbed42fe9	-0.41442803
240	0x3e019203	0.12653355
241	0x3dc87f89	0.097899504
242	0x3c80a758	0.015704796
243	0xbe241b28	-0.16025984
244	0xbc235166	-0.009968137
245	0xbe10481a	-0.14090005
246	0xbe0c84e5	-0.1372257
247	0xbc731df7	-0.014838687
248	0xbad2eef8	-0.0016092947
249	0x3de33702	0.11094476
250	0x3de4f97b	0.11180397
251	0x3ebe35ad	0.37150326
252	0x3dd6afd8	0.10482758
253	0x3cb3e245	0.02195848
254	0xbe690027	-0.22753964
255	0xbe0093f7	-0.12556444

_orig_mod.sequential.2.bias f4 [16]
0	0x3d942a76	0.07234661
1	0x3d4cf2cb	0.050036233
2	0xbcd6a41d	-0.026201302
3	0x3e819d7e	0.2531547
4	0x3e1b50b1	0.151675
5	0x3d975a5c	0.073902816
6	0xbd877487	-0.06614023
7	0x3e7e2f84	0.24822813
8	0x3e94381b	0.28949055
9	0x3e13f1df	0.14447735
10	0xbe901ca2	-0.28146845
11	0x3e42157d	0.1895351
12	0x3e42b434	0.19014055
13	0x3e45d2e6	0.19318733
14	0xbc8946b5	-0.016757349
15	0xbec8ca2c	-0.39216745

_orig_mod.sequential.4.weight f4 [1, 16]
0	0x3e9391f0	0.2882228
1	0x3e0217e7	0.1270443
2	0xbf2b2bfe	-0.66864
3	0x3e9f4898	0.31110072
4	0xbed999ba	-0.42500097
5	0x3e3a473e	0.18191239
6	0x3d043b3a	0.032283045
7	0x3eef4f65	0.4674026
8	0xbefcf636	-0.49406594
9	0xbf2e731c	-0.6814439
10	0x3d8d5f28	0.06902915
11	0x3e9d5fd4	0.30737174
12	0x3eb60b7e	0.35555643
13	0x3e882cbe	0.26596636
14	0xbec63003	-0.38708505
15	0xbda1db77	-0.07903188

square_avg f4 [16, 10]
0	0x383feeee	4.576047e-05
1	0x3816521a	3.583925e-05
2	0x38664724	5.4902528e-05
3	0x387045a6	5.7285324e-05
4	0x3853fcbd	5.05417e-05
5	0x385976cf	5.184748e-05
6	0x38312604	4.2235493e-05
7	0x377e4804	1.5156347e-05
8	0x38b1d4dc	8.479666e-05
9	0x38850cae	6.344296e-05
10	0x38851014	6.344929e-05
11	0x37cf5bf3	2.471914e-05
12	0x38613d67	5.3701366e-05
13	0x38d5ce13	0.00010195016
14	0x386744d9	5.513881e-05
15	0x37f23588	2.8873576e-05
16	0x3808e480	3.2637734e-05
17	0x378a8090	1.6510749e-05
18	0x38f9d036	0.000119120275
19	0x384ad97a	4.8363094e-05
20	0x3853a0ad	5.045596e-05
21	0x3859af37	5.1900013e-05
22	0x38528e3f	5.020038e-05
23	0x39dea060	0.00042462628
24	0x381889dd	3.636802e-05
25	0x38837757	6.2687956e-05
26	0x3867a089	5.52242e-05
27	0x38793a90	5.9420767e-05
28	0x39e637fc	0.0004391073
29	0x384d9c5e	4.9021437e-05
30	0x35e10721	1.6765881e-06
31	0x36050eac	1.9827085e-06
32	0x34a096ba	2.991199e-07
33	0x35a06b3f	1.1952142e-06
34	0x3531df4b	6.626257e-07
35	0x3548b804	7.4773584e-07
36	0x357764c9	9.216133e-07
37	0x3522946b	6.056568e-07
38	0x36441a20	2.9221483e-06
39	0x35b21c71	1.3270311e-06
40	0x385d699f	5.2788873e-05
41	0x3801e2d5	3.096725e-05
42	0x38611793	5.3666135e-05
43	0x3902fc12	0.0001249167
44	0x387f724d	6.090319e-05
45	0x3838a7c4	4.4025262e-05
46	0x3812ed45	3.5030087e-05
47	0x37fc191e	3.0052437e-05
48	0x38eaed88	0.00011202233
49	0x38899177	6.559764e-05
50	0x364aab51	3.0200065e-06
51	0x373ddd29	1.1316771e-05
52	0x36704a1e	3.5805929e-06
53	0x370c6e5c	8.370345e-06
54	0x35b982ae	1.3821607e-06
55	0x36057bad	1.9890533e-06
56	0x36525c64	3.1346217e-06
57	0x362cfdbe	2.5777695e-06
58	0x37b76a2a	2.1864736e-05
59	0x36031913	1.9535116e-06
60	0x38e2650f	0.000107953434
61	0x37f533da	2.9230421e-05
62	0x38d29a10	0.00010042277
63	0x398feb91	0.00027450596
64	0x38848652	6.3192696e-05
65	0x388cd171	6.714732e-05
66	0x38e4d4cf	0.00010911526
67	0x384b3214	4.844561e-05
68	0x397bff4b	0.0002403233
69	0x38e292e4	0.0001080388
70	0x387c1c2e	6.0107726e-05
71	0x380b3f5e	3.3199198e-05
72	0x38269891	3.9719573e-05
73	0x38996e43	7.3161464e-05
74	0x3848387d	4.7736325e-05
75	0x38227c60	3.8739643e-05
76	0x381cddf4	3.740001e-05
77	0x37ac5bc1	2.0546724e-05
78	0x38ab77dc	8.176241e-05
79	0x38404b8b	4.5846722e-05
80	0x388e137c	6.774717e-05
81	0x381516c3	3.5545567e-05
82	0x38325a52	4.2522624e-05
83	0x399d8699	0.00030045657
84	0x3872cb00	5.7886355e-05
85	0x386cf337	5.6493296e-05
86	0x383b8ea1	4.4717108e-05
87	0x38725848	5.7779514e-05
88	0x39844b18	0.0002523295
89	0x389507aa	7.106301e-05
90	0x3709bdaa	8.209996e-06
91	0x3683b33e	3.9249708e-06
92	0x369e3841	4.7153158e-06
93	0x37a85ef9	2.0071386e-05
94	0x3658af56	3.2288567e-06
95	0x36c6635e	5.9124277e-06
96	0x36afcd31	5.239294e-06
97	0x36aa3bfe	5.073379e-06
98	0x3780080f	1.5262542e-05
99	0x368d43ec	4.2100346e-06
100	0x3737ae26	1.0948197e-05
101	0x37563db9	1.2769765e-05
102	0x375caf4f	1.3153839e-05
103	0x388830fc	6.4941094e-05
104	0x37615d82	1.3432817e-05
105	0x3782236a	1.5513699e-05
106	0x374f1dbd	1.2345085e-05
107	0x371faf22	9.517915e-06
108	0x389b90b8	7.417932e-05
109	0x3782ac75	1.5577514e-05
110	0x3854eac5	5.0763385e-05
111	0x386f1445	5.7000918e-05
112	0x384cf808	4.8868387e-05
113	0x39aa9fd1	0.00032544
114	0x3821a018	3.853449e-05
115	0x3869651c	5.5645694e-05
116	0x38251f72	3.936835e-05
117	0x382db630	4.141609e-05
118	0x39c82e51	0.0003818148
119	0x385de6cd	5.2905456e-05
120	0x37155eb7	8.903145e-06
121	0x36fc6f38	7.523133e-06
122	0x3692b772	4.372495e-06
123	0x3814d85c	3.548745e-05
124	0x36a91e28	5.040103e-06
125	0x36de15fb	6.6186744e-06
126	0x36aea435	5.2047203e-06
127	0x36a69b39	4.965256e-06
128	0x38319be2	4.2345266e-05
129	0x36c7423b	5.9383724e-06
130	0x38298583	4.0417082e-05
131	0x37da4028	2.60175e-05
132	0x3817acf3	3.6162277e-05
133	0x39008919	0.00012258104
134	0x38519d8b	4.9976206e-05
135	0x37c2f95e	2.3242723e-05
136	0x3850c2b4	4.9772396e-05
137	0x37a6aa3c	1.9868014e-05
138	0x390f3da2	0.00013660503
139	0x3772e001	1.4476479e-05
140	0x3768bcc8	1.3872232e-05
141	0x374ddd47	1.2270472e-05
142	0x376fea41	1.4300052e-05
143	0x37a8e191	2.0132198e-05
144	0x37946665	1.7690656e-05
145	0x37da9c53	2.606042e-05
146	0x37503861	1.2410893e-05
147	0x36850778	3.9645784e-06
148	0x380f038b	3.4097156e-05
149	0x380ad6b0	3.3101707e-05
150	0x3940e4a6	0.00018395725
151	0x39805c01	0.0002448261
152	0x39933ee4	0.00028084882
153	0x3a46a9e1	0.00075784145
154	0x394a1161	0.00019270695
155	0x39345954	0.00017199415
156	0x3913e5d6	0.00014104633
157	0x38c87213	9.557991e-05
158	0x3a8efa40	0.001090832
159	0x3963c56e	0.00021721955

square_avg f4 [16]
0	0x38a273c0	7.746322e-05
1	0x38c24697	9.263789e-05
2	0x390e701e	0.00013583942
3	0x3576fabb	9.2007e-07
4	0x38b56a1c	8.650517e-05
5	0x369c132e	4.651395e-06
6	0x39188e4e	0.00014548862
7	0x38b58af6	8.656636e-05
8	0x38f4a25d	0.00011665069
9	0x36fdc0c4	7.5624284e-06
10	0x37e75323	2.757606e-05
11	0x390784a4	0.00012924016
12	0x374c692d	1.2183836e-05
13	0x3880e384	6.145894e-05
14	0x380c6d2e	3.3480283e-05
15	0x39ed8a20	0.00045307074

square_avg f4 [16, 16]
0	0x36f4ba2f	7.2934413e-06
1	0x36213605	2.4022313e-06
2	0x373c0d32	1.12087455e-05
3	0x33fc5b57	1.1751279e-07
4	0x363e94e4	2.8398872e-06
5	0x3575c43a	9.155516e-07
6	0x365cfeae	3.2930798e-06
7	0x3702cf37	7.79685e-06
8	0x382799a9	3.995901e-05
9	0x349088c1	2.6921592e-07
10	0x37b19db2	2.1173477e-05
11	0x3829f0e5	4.051709e-05
12	0x3726fba0	9.952957e-06
13	0x35e1e479	1.6830301e-06
14	0x369974a0	4.5733323e-06
15	0x37b914d6	2.2063421e-05
16	0x35a1049f	1.199678e-06
17	0x35002b27	4.774651e-07
18	0x3688cf7b	4.0772698e-06
19	0x319dfed2	4.598271e-09
20	0x35dc5b97	1.6417933e-06
21	0x347fb6ed	2.3815274e-07
22	0x35055c95	4.9681086e-07
23	0x36514a24	3.1186582e-06
24	0x36f63a2f	7.3381448e-06
25	0x33c82936	9.320722e-08
26	0x368309b1	3.9052325e-06
27	0x36eec752	7.1161567e-06
28	0x3612c0b1	2.1867857e-06
29	0x34ce1306	3.8384331e-07
30	0x3518361c	5.670315e-07
31	0x368adac4	4.138188e-06
32	0x36014623	1.9263323e-06
33	0x35d4d2fd	1.5856637e-06
34	0x384c9de4	4.8784437e-05
35	0x33a18e47	7.523027e-08
36	0x3728c3ac	1.0059139e-05
37	0x356a3abc	8.725726e-07
38	0x37a81b3a	2.0039839e-05
39	0x380bad87	3.3301792e-05
40	0x370c1647	8.349837e-06
41	0x3614e6ff	2.2188176e-06
42	0x37510087	1.24574935e-05
43	0x36e309c0	6.7662622e-06
44	0x374c28e3	1.2168867e-05
45	0x3685c7f2	3.9869856e-06
46	0x36d93bbd	6.4740584e-06
47	0x36f82fde	7.3965484e-06
48	0x36e87ac5	6.928431e-06
49	0x360a32b4	2.0593116e-06
50	0x3788fac7	1.632924e-05
51	0x330b217b	3.239391e-08
52	0x368df550	4.2306856e-06
53	0x35874a74	1.0079953e-06
54	0x361324ca	2.192612e-06
55	0x36eacfeb	6.9979483e-06
56	0x3823a642	3.9017068e-05
57	0x34bc5f35	3.5087e-07
58	0x37940c79	1.7648783e-05
59	0x381ce947	3.7410555e-05
60	0x3739b626	1.1069269e-05
61	0x35c87235	1.49344e-06
62	0x365fbe64	3.3340411e-06
63	0x37b05449	2.1020083e-05
64	0x35bdade9	1.4132212e-06
65	0x351b02ca	5.774606e-07
66	0x37921ee0	1.7418934e-05
67	0x3406ab9d	1.2542155e-07
68	0x36ee7835	7.1069467e-06
69	0x35a31b23	1.2152344e-06
70	0x36e91dce	6.947411e-06
71	0x37572c76	1.28253505e-05
72	0x36856fe5	3.976735e-06
73	0x3543e116	7.2970704e-07
74	0x367b5ae8	3.745483e-06
75	0x369fd114	4.762909e-06
76	0x369dcfcc	4.7031554e-06
77	0x360fb64c	2.1414771e-06
78	0x36649fed	3.4067737e-06
79	0x36f4c57b	7.2947564e-06
80	0x3608338a	2.029558e-06
81	0x354263ee	7.241605e-07
82	0x36a208a0	4.8289803e-06
83	0x33bab8f0	8.69494e-08
84	0x3688add1	4.0733507e-06
85	0x35814211	9.630477e-07
86	0x352cfc2a	6.444194e-07
87	0x36b17bf0	5.2894393e-06
88	0x374fe915	1.239243e-05
89	0x3438a71f	1.7197134e-07
90	0x36cb028b	6.0501675e-06
91	0x37556b14	1.272072e-05
92	0x364e3239	3.0725625e-06
93	0x350ed298	5.3205576e-07
94	0x35b94640	1.380402e-06
95	0x370c8992	8.376681e-06
96	0x3137f4bb	2.6769118e-09
97	0x30cac2fd	1.4752853e-09
98	0x32e6e427	2.6879276e-08
99	0x3080c12a	9.368126e-10
100	0x34b20925	3.3161737e-07
101	0x33239db5	3.809483e-08
102	0x32a49700	1.916078e-08
103	0x350a1cea	5.145108e-07
104	0x330866ad	3.175835e-08
105	0x32670bbf	1.344864e-08
106	0x32e6741a	2.6828321e-08
107	0x32d264a9	2.4492993e-08
108	0x319353e6	4.2878012e-09
109	0x3220ca6d	9.359252e-09
110	0x320d423e	8.222342e-09
111	0x338625b0	6.2467166e-08
112	0x3787ce23	1.6189244e-05
113	0x36987ba3	4.544346e-06
114	0x37eab2a9	2.7978169e-05
115	0x34d76775	4.0122146e-07
116	0x376ef32c	1.4242523e-05
117	0x3664e65d	3.4108737e-06
118	0x36a0afb3	4.7888257e-06
119	0x37c55cf4	2.3527515e-05
120	0x38b64a2c	8.692252e-05
121	0x356b550f	8.76681e-07
122	0x382d2bcf	4.1287214e-05
123	0x38bd9a6f	9.040988e-05
124	0x37b094ca	2.105012e-05
125	0x3681a9cd	3.864267e-06
126	0x36f0f096	7.1805653e-06
127	0x38612652	5.367987e-05
128	0x378211d5	1.5505511e-05
129	0x36962681	4.474831e-06
130	0x3874a078	5.832358e-05
131	0x3541761a	7.2069963e-07
132	0x37afb80f	2.0947335e-05
133	0x3610ad0f	2.1558405e-06
134	0x37a96a72	2.0195937e-05
135	0x3835e672	4.336838e-05
136	0x38847f4f	6.3179636e-05
137	0x35fff614	1.9070599e-06
138	0x383c2f99	4.486702e-05
139	0x3862c38d	5.406472e-05
140	0x38182b50	3.6279962e-05
141	0x36d203c1	6.2589247e-06
142	0x37a622b7	1.9804907e-05
143	0x381af474	3.6944126e-05
144	0x36a8873f	5.022535e-06
145	0x35cf97d4	1.546689e-06
146	0x37f9da4e	2.978477e-05
147	0x348e83c9	2.6545447e-07
148	0x3777fe9a	1.4781626e-05
149	0x3595e122	1.1166887e-06
150	0x37a8e16f	2.0132136e-05
151	0x382721f0	3.984751e-05
152	0x3719c368	9.165007e-06
153	0x36086c49	2.032861e-06
154	0x37337aae	1.0697795e-05
155	0x37009f55	7.666492e-06
156	0x372a792f	1.0161005e-05
157	0x369d48aa	4.687424e-06
158	0x374384b4	1.1653803e-05
159	0x372545c2	9.851008e-06
160	0x2fdc6f74	4.009696e-10
161	0x326ea8fd	1.3891847e-08
162	0x308b4fc6	1.0136254e-09
163	0x2e51cecd	4.7704774e-11
164	0x34697e5f	2.174579e-07
165	0x2c2d52b6	2.4630692e-12
166	0x32fc3279	2.9359613e-08
167	0x34de71c0	4.1433486e-07
168	0x2f62fb7f	2.064393e-10
169	0x338a090a	6.42777e-08
170	0x32335352	1.0438116e-08
171	0x00000000	0.0
172	0x31e3d453	6.630708e-09
173	0x26b76bd3	1.2727402e-15
174	0x32a0b870	1.8710324e-08
175	0x2fa8f303	3.0731692e-10
176	0x36fc745e	7.523732e-06
177	0x3618ea14	2.2786016e-06
178	0x379ee3c6	1.8941133e-05
179	0x352cc89d	6.4366924e-07
180	0x36a23c6c	4.8350103e-06
181	0x361775a8	2.2569238e-06
182	0x3634fbf4	2.6968746e-06
183	0x36a499aa	4.9054697e-06
184	0x3832435c	4.250124e-05
185	0x34cabf5d	3.7764667e-07
186	0x37b135bc	2.1125066e-05
187	0x382cad7c	4.1169566e-05
188	0x375017a5	1.2403271e-05
189	0x35cc6293	1.5227873e-06
190	0x36b59548	5.411599e-06
191	0x37d878ac	2.5805399e-05
192	0x37236ca6	9.740854e-06
193	0x3642a33c	2.9003268e-06
194	0x37a7eb58	2.0017542e-05
195	0x343e2e17	1.7711896e-07
196	0x36f32127	7.245824e-06
197	0x35dcf6f6	1.6463152e-06
198	0x36476684	2.9712983e-06
199	0x3721a8c6	9.635643e-06
200	0x386c9f7a	5.641531e-05
201	0x351f7e79	5.941616e-07
202	0x37e04165	2.6733333e-05
203	0x38618085	5.3763873e-05
204	0x378324fa	1.5633635e-05
205	0x361033fc	2.148793e-06
206	0x36a990cf	5.0534504e-06
207	0x380004fd	3.0522224e-05
208	0x36900dd1	4.293143e-06
209	0x35cc6eb2	1.5231401e-06
210	0x378ea347	1.7003751e-05
211	0x34dab1ae	4.0734943e-07
212	0x3686a150	4.0122904e-06
213	0x35c44c1b	1.4625288e-06
214	0x3606aba3	2.0067462e-06
215	0x3697405d	4.5076436e-06
216	0x37f58438	2.9267845e-05
217	0x34b2832c	3.3250524e-07
218	0x3777438f	1.4738077e-05
219	0x37eb0018	2.8014227e-05
220	0x37165eae	8.962741e-06
221	0x355f7a25	8.325172e-07
222	0x366baeee	3.5119551e-06
223	0x3790f681	1.7280925e-05
224	0x374c7d71	1.2188554e-05
225	0x36587e48	3.2260014e-06
226	0x38336e46	4.2779626e-05
227	0x337886ca	5.786459e-08
228	0x373968cc	1.1051259e-05
229	0x352abeaf	6.3607416e-07
230	0x37411ba7	1.1510135e-05
231	0x378b0de0	1.6576552e-05
232	0x389e52fc	7.549484e-05
233	0x35b1b051	1.3238842e-06
234	0x382819b6	4.0078266e-05
235	0x388c3fec	6.6876266e-05
236	0x37e98288	2.7836548e-05
237	0x365fc821	3.334608e-06
238	0x373b571a	1.11663485e-05
239	0x37db90a4	2.6174188e-05
240	0x33ea4b18	1.09101336e-07
241	0x334be1fa	4.7470145e-08
242	0x3557af69	8.0348997e-07
243	0x310bc3d7	2.0338484e-09
244	0x35ace174	1.2880614e-06
245	0x331eb677	3.6953193e-08
246	0x343b03b3	1.7417078e-07
247	0x363f4026	2.8498557e-06
248	0x35832ce2	9.773323e-07
249	0x338d180f	6.5702004e-08
250	0x35015314	4.817714e-07
251	0x3588d77b	1.0195503e-06
252	0x3473172d	2.263957e-07
253	0x33a756f7	7.792362e-08
254	0x32c3ad56	2.2779812e-08
255	0x34d604c4	3.9864074e-07

square_avg f4 [16]
0	0x383b89ff	4.4712793e-05
1	0x371e7b30	9.446216e-06
2	0x385fa207	5.3318243e-05
3	0x383921bb	4.413885e-05
4	0x37d29563	2.5103514e-05
5	0x37746004	1.4565889e-05
6	0x33abe912	8.005203e-08
7	0x38d00a65	9.920149e-05
8	0x3914c9b5	0.00014189522
9	0x387dc55a	6.05037e-05
10	0x34663250	2.1438723e-07
11	0x385cf873	5.2683474e-05
12	0x388b9ffc	6.657836e-05
13	0x3810e6c2	3.4547185e-05
14	0x38b2dbc0	8.528633e-05
15	0x354e5e54	7.6878246e-07

square_avg f4 [1, 16]
0	0x3988615e	0.00026012486
1	0x39b4c527	0.00034479165
2	0x38778afd	5.9018832e-05
3	0x3a30b7fa	0.0006741282
4	0x384b1da4	4.8426577e-05
5	0x397349d0	0.00023201783
6	0x3586b184	1.0035442e-06
7	0x39e4b249	0.00043620382
8	0x39b2a6c0	0.00034075044
9	0x387d1c05	6.0345996e-05
10	0x335019e6	4.845233e-08
11	0x39862a0f	0.00025589808
12	0x3a005450	0.0004895376
13	0x3987ad8d	0.00025878512
14	0x398e08d7	0.00027090937
15	0x3835cacc	4.3342632e-05
